output/model.pt (torch, 116393 bytes, 24 tensors)

fc1.weight f4 [64, 49]
0	0xbdc55465	-0.096352376
1	0x3e286b2d	0.16447134
2	0x3df8e78f	0.12153541
3	0x3be02f85	0.0068416023
4	0xbc45d4e5	-0.012074684
5	0xbe196053	-0.14978151
6	0x3def7c6f	0.11693656
7	0x3e0ef3e7	0.13960229
8	0xbc05fcba	-0.0081779305
9	0xbeed2af5	-0.46321836
10	0xbdcf8199	-0.10132141
11	0xbe2591af	-0.16168855
12	0x3cc3bf15	0.023894826
13	0x3e5b0b99	0.21391143
14	0x3da1b2b5	0.07895414
15	0x3c8ad4c9	0.016947167
16	0xbddc3b0a	-0.10753448
17	0x3da34810	0.07972729
18	0xbdce36f8	-0.10069078
19	0x3e596994	0.21231681
20	0xbdefa346	-0.11701064
21	0x3e043d65	0.12914045
22	0x3c4407bf	0.011964737
23	0x3ed27709	0.41106442
24	0xbcf3e342	-0.02977145
25	0x3d2bccec	0.041943476
26	0x3e8f1d52	0.27952057
27	0xbe5e2717	-0.21694599
28	0xbe5dcc6a	-0.21660009
29	0xbe21a5dc	-0.15785927
30	0xbe436e34	-0.19085008
31	0x3e0e8528	0.13917983
32	0x3e1e46a1	0.1545663
33	0x3d416a14	0.047220305
34	0xbe318d5d	-0.17339082
35	0xbea1e055	-0.31616464
36	0x3b3f98e8	0.0029235426
37	0xbdc6f0da	-0.097139075
38	0xbb710c8c	-0.003678116
39	0xbe773779	-0.24142255
40	0xbe1718ab	-0.14755504
41	0xbccac584	-0.024752386
42	0x3cff4269	0.031159597
43	0x3d0eecfc	0.034893975
44	0x3d808445	0.062752284
45	0x3e9ff53c	0.31241786
46	0x3e15d38c	0.1463148
47	0xbde60ad9	-0.11232538
48	0x3de52db9	0.111903615
49	0xbe09bc5d	-0.13450761
50	0x3dab15f4	0.083537966
51	0x3d7d594a	0.06185273
52	0x3db3b675	0.08775035
53	0x3e82d3ef	0.25552318
54	0xbd3f544d	-0.046711255
55	0x3d80b73d	0.0628495
56	0x3d146b2e	0.036235027
57	0x3e2dc84a	0.16970935
58	0x3da224f4	0.079172045
59	0x3e33d23c	0.17560667
60	0x3e9cb800	0.3060913
61	0xbd42dae9	-0.04757205
62	0x3dcd18a1	0.10014463
63	0x3e95851b	0.29203114
64	0x3e4da4ee	0.20082447
65	0xbd6d887e	-0.057991497
66	0x3e8cdcfb	0.27512345
67	0xbd53ac69	-0.051678095
68	0x3d823082	0.063569084
69	0x3dc970b5	0.0983595
70	0xbe1a338f	-0.1505873
71	0x3e7f21b5	0.24915202
72	0xbe5af437	-0.21382223
73	0x3e521398	0.20515287
74	0xbdfa06d2	-0.12208332
75	0xbd9346af	-0.07191216
76	0xbd4653dd	-0.048419822
77	0xbe4e3745	-0.20138271
78	0xbd2babb6	-0.041911803
79	0x3d58b058	0.05290255
80	0x3dc4f1ab	0.09616407
81	0xbe51692a	-0.20450273
82	0xbe4f9108	-0.20270169
83	0x3dec6440	0.11542559
84	0x3e2a5826	0.16635188
85	0xbdd543bd	-0.10413311
86	0xbe0f446d	-0.13990946
87	0xbca5b572	-0.020228121
88	0xbcd2487e	-0.025669333
89	0xbe39e92f	-0.18155359
90	0xbd8ca090	-0.06866562
91	0xbe1c9890	-0.15292573
92	0x3e1c06ff	0.15237044
93	0xbcd55ead	-0.026046121
94	0xbda4684a	-0.08027704
95	0x3e0c1032	0.13678053
96	0xbdeeb49b	-0.116555415
97	0xbdc6d3b8	-0.09708351
98	0xbd39ecb6	-0.04539176
99	0x3de36348	0.11102921
100	0xbd8b54aa	-0.06803258
101	0xbddf2b1e	-0.10896896
102	0xbd358772	-0.044318624
103	0x3db3a231	0.0877117
104	0x3def5d7b	0.11687752
105	0x3e0531a9	0.13007225
106	0x3e38ca79	0.18045987
107	0x3e495bfc	0.19663996
108	0x3df3ccb7	0.11904281
109	0x3eba820e	0.3642735
110	0x3ea3811d	0.31934443
111	0xbc4a1e1f	-0.012336283
112	0x3cb6de7f	0.022322891
113	0x3e1fbb53	0.15598802
114	0xbb9c520f	-0.0047705243
115	0x3e04a71d	0.12954374
116	0x3d637d22	0.055539258
117	0x3e8fbf57	0.28075668
118	0x3dccad57	0.099939995
119	0x3d93d4b0	0.07218301
120	0x3e6cdfa9	0.23132195
121	0x3d9ff5e8	0.07810575
122	0x3d6fd11f	0.058549043
123	0x3dee4525	0.11634282
124	0x3d4b6eb3	0.049666118
125	0xbdbcd341	-0.09219981
126	0xbd936f4e	-0.07198964
127	0x3d6fe545	0.058568258
128	0x3d914530	0.070932746
129	0xbd569809	-0.052391086
130	0xbe085dcf	-0.13317035
131	0x3d1785c4	0.036992803
132	0xbda06a80	-0.07832813
133	0xbd82082e	-0.063492164
134	0x3dbc6464	0.091988355
135	0x3e203cdd	0.15648217
136	0x3dfaa200	0.1223793
137	0xbd41622a	-0.047212757
138	0x3e4a0168	0.19727099
139	0xbca0b984	-0.01961971
140	0xbdf9cbe6	-0.12197094
141	0x3e5087dc	0.20364326
142	0x3d943ea0	0.07238507
143	0x3b6c003e	0.0036010887
144	0x3d79c0ba	0.060974814
145	0x3e5a2f6f	0.21307157
146	0xbdb2edf5	-0.08736793
147	0x3e288dff	0.16460417
148	0x3f1104d8	0.56648016
149	0x3c1f5f40	0.009727299
150	0x3dcb1a43	0.099171184
151	0xbca33b88	-0.019925848
152	0xbe975e3b	-0.2956408
153	0x3e3f7b2a	0.18699327
154	0x3e5e0ecf	0.21685337
155	0xbda62560	-0.081125975
156	0xbed37bed	-0.41305485
157	0x3e229fc0	0.15881252
158	0x3e9132e4	0.2835914
159	0x3d6ae3a6	0.05734601
160	0x3d72420e	0.059145026
161	0x3e1fddc6	0.15611944
162	0x3e0850e5	0.13312109
163	0xbe439045	-0.19098003
164	0x3de50f46	0.11184554
165	0x3e572d51	0.2101338
166	0x3e30757b	0.17232315
167	0x3e706b2e	0.23478386
168	0x3de1f326	0.11032705
169	0xbd96a93d	-0.073564984
170	0x3e89cc97	0.26913902
171	0x3d7da2af	0.061922725
172	0x3ce2b298	0.02767305
173	0x3e941608	0.28923059
174	0xbe51961e	-0.20467421
175	0xbbf9d1c9	-0.0076238853
176	0xbe23170b	-0.15926759
177	0x3e75c2a8	0.24000037
178	0x3e94f298	0.29091334
179	0x3e4fd0a9	0.20294441
180	0x3d8d1418	0.06888598
181	0xbe08940a	-0.13337722
182	0xbd542363	-0.05179156
183	0xba8880f1	-0.0010414404
184	0x3dd5d2ff	0.10440635
185	0x3b399948	0.0028320123
186	0xbbdee6c7	-0.006802413
187	0x3d949bce	0.0725628
188	0x3e7302f1	0.23731591
189	0x3d5f4344	0.05450751
190	0x3e02f9ed	0.12790652
191	0xbe09a313	-0.13441114
192	0x3e83f16c	0.25770128
193	0x3d95f2c1	0.07321692
194	0xbe03cc7b	-0.12870972
195	0x3e5a63d2	0.21327141
196	0x3dbebe8b	0.09313687
197	0xbe1b9da8	-0.1519686
198	0x3c0944d6	0.008378228
199	0xbe371c77	-0.17881952
200	0xbd614b8d	-0.05500369
201	0xbd943619	-0.07236881
202	0xbe579c41	-0.210557
203	0xbdd480ad	-0.103761055
204	0x3dbe9579	0.093058534
205	0x3deaf449	0.11472375
206	0x3dbbe424	0.09174374
207	0xbccf2451	-0.025285872
208	0x3df9220a	0.121646956
209	0xbe820fec	-0.25402772
210	0xbe0c8799	-0.13723601
211	0xbdcc03d9	-0.099616714
212	0xbc08d1c6	-0.008350795
213	0xbe73f7f7	-0.2382506
214	0xbe655d16	-0.2239879
215	0xbd304135	-0.043030936
216	0xbcfd6b08	-0.030934826
217	0xbe1a24d6	-0.15053114
218	0x3da3e01c	0.0800173
219	0x3d2e9dd3	0.04263098
220	0x3d8cd85b	0.06877204
221	0xbd527ef9	-0.05139062
222	0x3e1e861c	0.15480846
223	0x3db55616	0.0885431
224	0xbc59185c	-0.013250437
225	0xbe69a0a7	-0.2281519
226	0x3dad658c	0.08466634
227	0x3dc268a3	0.09492614
228	0x3c641660	0.01392135
229	0xbd16260a	-0.03665737
230	0xbde428dc	-0.11140606
231	0x3c5cd377	0.0134781515
232	0xbcf5c889	-0.03000285
233	0xbd899cc2	-0.06719352
234	0xbdbe591a	-0.092943385
235	0xbd197449	-0.037464414
236	0xbd8bb4f5	-0.06821624
237	0xbdd509b1	-0.10402239
238	0xbe370dd0	-0.17876363
239	0x3d8aba89	0.0677386
240	0xbe1a4175	-0.15064032
241	0xbd89194f	-0.0669428
242	0xbe74ad5b	-0.23894255
243	0xbe87720e	-0.26454204
244	0xbdd5f912	-0.10447897
245	0xba63e82e	-0.000869396
246	0x3dc6d70e	0.09708987
247	0x3d9a1b68	0.075247586
248	0xbe4a8815	-0.19778474
249	0x3d917913	0.07103171
250	0xbd4f202f	-0.050567802
251	0xbd22b6bc	-0.03972505
252	0x3e0352a3	0.12824492
253	0xbcc35d9a	-0.023848344
254	0xbdf88ff2	-0.121368304
255	0x3e4006d2	0.18752602

fc1.bias f4 [64]
0	0x3df6e290	0.12054932
1	0x3e5fc84f	0.21853755
2	0x3d9b35ad	0.07578597
3	0x3e83762d	0.25676098
4	0xbcba7e0c	-0.022765182
5	0x3de269a1	0.11055303
6	0x3e55a962	0.20865396
7	0x3e8b9660	0.27263165
8	0x3e79ecd6	0.24406752
9	0x3dd82f68	0.10555917
10	0x3dc911ff	0.098178856
11	0x3e8fe27d	0.28102484
12	0x3e84dcc0	0.2594967
13	0x3d8998e9	0.067186184
14	0x3d9a183e	0.07524155
15	0x3eba00a4	0.36328614
16	0x3e5aa2d8	0.21351182
17	0x3e076b51	0.13224532
18	0x3da6f665	0.08152465
19	0x3e11e478	0.1424731
20	0x3ecf87b0	0.4053321
21	0x3da48eb1	0.08035029
22	0x3dbe9e9c	0.09307596
23	0x3e47d13c	0.1951341
24	0x3e2e28f6	0.17007813
25	0x3d96e45b	0.07367774
26	0x3e6c1576	0.23055062
27	0x3d4ef9a1	0.050531033
28	0x3dcbd3e2	0.09952523
29	0xbd2223c5	-0.039584894
30	0x3e7089a8	0.23490012
31	0x3d9f3dce	0.0777546
32	0x3e1825ab	0.14858119
33	0x3e2669bd	0.16251273
34	0x3ea80db5	0.32822958
35	0x3dd917d4	0.10600248
36	0x3e508996	0.20364985
37	0x3e117797	0.14205776
38	0xbd56458d	-0.052312423
39	0x3e4fc691	0.20290591
40	0x3e36b097	0.17840801
41	0x3f145807	0.5794682
42	0x3d6ff126	0.058579586
43	0x3daad710	0.08341801
44	0xbd6b2a1f	-0.057413217
45	0x3e418034	0.18896562
46	0x3e385815	0.1800235
47	0x3e184999	0.14871825
48	0x3e1a66e1	0.15078308
49	0x3eade680	0.3396492
50	0x3e6153d2	0.22004631
51	0x3e1f0d99	0.15532531
52	0x3ec70065	0.38867489
53	0x3d1bf026	0.03807082
54	0x3bb271c9	0.005445693
55	0x3e50493f	0.20340441
56	0x3e100262	0.14063409
57	0x3e35ecff	0.17766188
58	0x3ed0efda	0.40807992
59	0x3b070e03	0.0020607717
60	0x3e223413	0.15840177
61	0x3e0c58f1	0.13705803
62	0x3e074397	0.13209377
63	0x3e5ec3d8	0.21754396

fc2.weight f4 [32, 64]
0	0x3eb67866	0.35638732
1	0x3b141c9b	0.0022600058
2	0x3dbea086	0.09307961
3	0x3e6aeaf1	0.22941186
4	0x3e07c8b9	0.13260163
5	0x3e11ff81	0.14257623
6	0xbd5970a1	-0.053085927
7	0x3ea86b0d	0.32894173
8	0x3e044cd4	0.12919933
9	0x3e359856	0.17733893
10	0x3deb11f1	0.114780314
11	0x3db483f6	0.08814232
12	0x3c49b236	0.012310555
13	0x3e785f78	0.24255168
14	0xbb4494ca	-0.0029995912
15	0x3e1d5342	0.15363792
16	0x3e5bed44	0.21477228
17	0xbcbbd66a	-0.022929389
18	0x3d8095c2	0.06278564
19	0x3e3af297	0.18256603
20	0x3e40ff38	0.18847358
21	0x3d245d9b	0.04012833
22	0xbc61cdc3	-0.013781968
23	0x3e6f0f7f	0.23345755
24	0x3e6e4ab4	0.23270684
25	0xbcaad8c0	-0.020855308
26	0x3e891650	0.26774836
27	0x3df16e65	0.11788634
28	0x3d157b3a	0.03649447
29	0xbdc0b9ff	-0.09410476
30	0x3e391961	0.18076088
31	0x3c5b4595	0.013383289
32	0x3d85b189	0.06528003
33	0xbdefc497	-0.117074184
34	0x3e6d67ca	0.23184124
35	0x3df41586	0.11918168
36	0x3e6cf6ad	0.23140974
37	0x3e81e5f4	0.25370753
38	0x3d930c6f	0.07180106
39	0x3e84a476	0.25906724
40	0x3e8c90bd	0.27454177
41	0x3ddc57d7	0.107589416
42	0x3e83c68c	0.25737417
43	0x3def970f	0.11698734
44	0x3e32cb1e	0.17460296
45	0x3e1d6f97	0.153746
46	0x3e134e71	0.14385392
47	0x3dbbf3a7	0.09177332
48	0x3dd0fbc6	0.10204272
49	0x3e5e5250	0.21711087
50	0x3c123fd7	0.008926353
51	0x3dbb2314	0.0913755
52	0x3e4956be	0.19661996
53	0x3e998bcc	0.2998947
54	0xbe340146	-0.17578611
55	0x3ce413d8	0.027841493
56	0x3e035522	0.12825444
57	0x3e37cb37	0.17948614
58	0x3e843984	0.2582513
59	0xbb6a37e7	-0.0035738887
60	0x3d394a6b	0.045236986
61	0x3d57cd81	0.05268622
62	0x3e371a1b	0.17881052
63	0x3e5e93be	0.21736047
64	0x3d2f59cc	0.042810246
65	0xbbb75e93	-0.005595991
66	0x3d9fbe12	0.07799925
67	0x3c71098c	0.014711749
68	0xbdd60a0c	-0.10451135
69	0x3daa2350	0.083075166
70	0xbdc603b4	-0.09668675
71	0x3d5a7806	0.05333712
72	0xbd2e6a24	-0.042581692
73	0xbc2fe812	-0.010736482
74	0x3c8b08ae	0.016971912
75	0xbd46c598	-0.048528284
76	0x3d38a0c8	0.045075208
77	0xbdd32b11	-0.10310949
78	0xbe07d697	-0.13265453
79	0x3c1ed119	0.009693407
80	0xbc798745	-0.015230005
81	0xbd9f6b20	-0.07784104
82	0xbe1d4535	-0.15358432
83	0xbcd06de6	-0.025443029
84	0xbd8f23bb	-0.06989237
85	0x3de10f6e	0.10989271
86	0xbdcc42c5	-0.09973673
87	0xbd8e71f8	-0.069553316
88	0xbd3b734c	-0.045764253
89	0x3d338802	0.04383088
90	0xbdd7b4dd	-0.10532544
91	0x3d5c3c64	0.05376853
92	0xbdeaee01	-0.11471177
93	0xbdd7af44	-0.10531476
94	0x3ced3923	0.028957909
95	0xbd264db8	-0.040601462
96	0x3c1b6130	0.0094836205
97	0xbe1c6a59	-0.15274943
98	0xbdd81c97	-0.10552328
99	0x3cce0d6a	0.02515288
100	0x3b1a4e28	0.002354512
101	0x3ce5c049	0.02804579
102	0x3d5164bb	0.051121455
103	0x3d831953	0.064013146
104	0x3c545285	0.012959127
105	0xbd956080	-0.072937965
106	0xbd8988a5	-0.06715516
107	0xbdf84da0	-0.12124181
108	0x3cb123e1	0.021623554
109	0xbcd95768	-0.026530936
110	0xbd806b19	-0.06270427
111	0x3d717c56	0.058956467
112	0xbcd9bfd2	-0.026580725
113	0xbd902910	-0.07039082
114	0xbd18f98f	-0.037347373
115	0xbdd62ec6	-0.1045814
116	0x3db7cd80	0.08974743
117	0xbe0992d0	-0.13434911
118	0xbe101cf7	-0.14073549
119	0xbc1d231f	-0.009590893
120	0xbdd06ecc	-0.10177383
121	0x3da94e0c	0.082668394
122	0x3c0527a3	0.008127126
123	0xbd4e0371	-0.05029625
124	0xbd58bdb5	-0.052915294
125	0xbd1c37b4	-0.03813906
126	0x3c492ecb	0.012279223
127	0xbcf345e5	-0.029696414
128	0xbce940d5	-0.028473297
129	0x3d2138db	0.039360862
130	0x3e5021b1	0.20325352
131	0x3e269a09	0.16269697
132	0x3d1dbc82	0.038509853
133	0x3e69ac75	0.22819693
134	0xbe3a4286	-0.18189439
135	0x3e3854f2	0.18001154
136	0x3dd782b2	0.10522975
137	0xbdd1a110	-0.10235798
138	0x3e3ac533	0.18239288
139	0x3d763ddb	0.060117584
140	0x3e727c09	0.23680128
141	0x3d11554a	0.03548173
142	0x3e82974f	0.25506064
143	0x3e9b131a	0.3028801
144	0x3df0991b	0.117479526
145	0x3e203dbf	0.15648554
146	0x3e85508e	0.2603802
147	0xbe179b6d	-0.14805384
148	0x3eaebf1e	0.34130186
149	0x3e542c61	0.20720054
150	0x3e58c227	0.21167813
151	0xbe2cf3a9	-0.16889824
152	0x3d8eb49e	0.06968044
153	0x3eb1e432	0.34744412
154	0x3db54658	0.08851308
155	0x3e2dbfb2	0.16967657
156	0x3e441e0b	0.19152085
157	0xbab87b34	-0.0014074803
158	0x3de6632b	0.112493835
159	0x3e2ce041	0.16882421
160	0x3da3b786	0.07993989
161	0x3e3806fd	0.17971416
162	0x3dc08303	0.093999885
163	0xbd39f166	-0.04539623
164	0x3d4b0d78	0.04957339
165	0xbe3f3c71	-0.186754
166	0x3e867c9a	0.26266938
167	0x3e38ceeb	0.18047683
168	0x3ca7bea5	0.020476649
169	0x3ebc5ebf	0.36791036
170	0xbd71d41a	-0.059040166
171	0x3ea00e27	0.31260797
172	0xbd1a5af1	-0.037684385
173	0x3e2e7f8c	0.17040843
174	0x3d9ef97d	0.0776243
175	0x3e0302ac	0.12793988
176	0x3c6fb25c	0.0146299265
177	0x3edb272d	0.42803326
178	0x3e82ab6e	0.25521415
179	0x3e542bc3	0.20719819
180	0x3e8129e4	0.25227273
181	0xbe15dc72	-0.14634874
182	0x3e968e19	0.29405287
183	0x3df158d4	0.11784521
184	0x3ea67f7c	0.32519138
185	0x3ec7f4e1	0.39054015
186	0xba074d6a	-0.0005161377
187	0x3df2dea6	0.11858873
188	0x3e119f90	0.14221025
189	0xbd421ed5	-0.047392685
190	0x3e8ca473	0.27469215
191	0x3e3639ed	0.17795534
192	0x3daaf6a2	0.08347823
193	0xbd9a2dba	-0.07528253
194	0xbdade598	-0.08491057
195	0xbe44a891	-0.19204928
196	0xbd45c766	-0.048285864
197	0x3d7496d8	0.05971417
198	0xbc13f48e	-0.009030474
199	0xbd7d3fae	-0.061828308
200	0x3d877d01	0.066156395
201	0xbcb18f7c	-0.021674864
202	0xbd39d4b2	-0.045368858
203	0xbdaf789f	-0.085679285
204	0x3d914728	0.0709365
205	0xbdaa2b19	-0.083090015
206	0xbda78e4c	-0.08181438
207	0xbdbd7bd6	-0.092521355
208	0xbe0e7006	-0.13909921
209	0x3dd8bfec	0.10583481
210	0xbd4f0e3b	-0.05055068
211	0xbd489850	-0.04897338
212	0x3d5bb217	0.053636637
213	0xbe04a784	-0.12954527
214	0x3ce8bfc3	0.028411752
215	0xbd4d7a5f	-0.05016553
216	0x3cacbba0	0.02108556
217	0xbd4fddfc	-0.05074881
218	0x3d3eb6bc	0.046560988
219	0x3db85623	0.09000804
220	0x3d8cb526	0.06870489
221	0xbdbe4faa	-0.092925385
222	0xbe11262d	-0.14174719
223	0xbdc4b763	-0.09605291
224	0xbddc5eb6	-0.10760252
225	0x3d10b7ea	0.035331644
226	0xbba06cb6	-0.004895772
227	0x3da942af	0.08264672
228	0x3daca6e0	0.084302664
229	0xbdd3261a	-0.10310002
230	0xbcacc264	-0.021088786
231	0x3d8456ff	0.06461906
232	0x3dbba9d8	0.091632545
233	0xbd02998b	-0.03188471
234	0xbc615032	-0.01375203
235	0xbd4585d1	-0.04822332
236	0xbe1a7e4b	-0.1508724
237	0xbd8ad1d1	-0.067783006
238	0x3c41f6e6	0.01183865
239	0x3d8bf3f1	0.068336375
240	0x3d292127	0.041291382
241	0xbc847343	-0.016168242
242	0xbe01bce9	-0.1266972
243	0xbdac6faa	-0.08419736
244	0xbd2a3ec9	-0.041563783
245	0x3d7c8a24	0.06165518
246	0x3da53ffa	0.08068843
247	0xbd4d7d7e	-0.050168507
248	0xbd8daba7	-0.06917506
249	0xbc017107	-0.007900483
250	0xbd5ef002	-0.054428108
251	0xbcf4f3e8	-0.02990146
252	0xbc199793	-0.009374517
253	0xbe17ef51	-0.14837386
254	0x3da5195a	0.08061476
255	0xbddd4bd4	-0.10805479

fc2.bias f4 [32]
0	0x3e239445	0.15974529
1	0xbe1c15b2	-0.15242651
2	0x3e7a6666	0.24453124
3	0xbd897b80	-0.06713009
4	0xbd03d5b4	-0.032186225
5	0x3eab49c6	0.33454722
6	0x3de4b26c	0.11166844
7	0x3dd7848b	0.105233274
8	0xbe225e73	-0.15856342
9	0x3d21cdf0	0.039503038
10	0x3d800db6	0.06252615
11	0xbcc6fa85	-0.024289379
12	0x3d7d1dad	0.06179588
13	0x3d24ad33	0.04020424
14	0xbdbe2a62	-0.09285428
15	0x3d98a18b	0.07452687
16	0xbdd32b47	-0.10310989
17	0xbd2c7572	-0.042104192
18	0x3da77c24	0.08177975
19	0x3df5321b	0.119724475
20	0xbd98906b	-0.074494205
21	0x3dc89fdf	0.09796118
22	0x3db4541b	0.08805104
23	0xbd158d8d	-0.036511946
24	0xbb1701fb	-0.0023041952
25	0xbd019096	-0.03163203
26	0x3cd19830	0.025585264
27	0x3e3433ae	0.17597839
28	0xbbceb932	-0.006308698
29	0x3e4be01a	0.19909707
30	0x3d82c648	0.063854754
31	0x3d7e41db	0.062074523

fc3.weight f4 [49, 32]
0	0xbc03ac60	-0.008036703
1	0x3c82afa9	0.015952902
2	0x3e35c5d2	0.17751244
3	0x3e38740e	0.18013021
4	0xbda75185	-0.081698455
5	0xbd1b6f94	-0.037948206
6	0xbdb9c86f	-0.09071433
7	0x3e660816	0.22464022
8	0x3d2eca1b	0.04267321
9	0x3ddc19f9	0.107471414
10	0x3c3ff1af	0.011715337
11	0x3d9d5476	0.07682125
12	0xbe27f26c	-0.1640107
13	0xbdee0067	-0.116211705
14	0xbdd1d0ff	-0.10244941
15	0xbd15e7b5	-0.036597926
16	0xbe393e60	-0.180902
17	0x3dce6a55	0.10078875
18	0xbdc924cd	-0.09821472
19	0xbe2d3ef1	-0.16918541
20	0xbd0c3856	-0.034233414
21	0xbd92f835	-0.07176248
22	0xbd93b3c7	-0.07212024
23	0x3e392da9	0.18083824
24	0x3d85e686	0.065381095
25	0x3d98f387	0.07468324
26	0x3c14c4b0	0.009080097
27	0xbcedeb42	-0.029042844
28	0xbdb3b75f	-0.0877521
29	0xbd8b5903	-0.06804087
30	0xbe015a45	-0.12632091
31	0xbdda0456	-0.10645358
32	0x3e056b84	0.13029295
33	0xbd5a4039	-0.053283904
34	0xbe803a6a	-0.25044566
35	0xbc14aa04	-0.009073738
36	0x3d931da9	0.071833916
37	0x3d85c8e3	0.06532457
38	0xbdd67d66	-0.104731366
39	0x3c69c6c7	0.014268584
40	0x3df5d28e	0.12003051
41	0x3d80346e	0.0626
42	0x3e53dd7d	0.2068996
43	0xb7cb8281	-2.4260256e-05
44	0x3e0e1cba	0.13878146
45	0x3e1d4463	0.15358119
46	0xbd1467d6	-0.03623184
47	0x3d2ae1ad	0.041719127
48	0xbe22eef2	-0.15911463
49	0xbdde0ce5	-0.10842303
50	0x3d425cd2	0.0474518
51	0x3dcc8185	0.099856414
52	0xbe2b8ebf	-0.16753672
53	0x3e1fe1c5	0.15613468
54	0xbc818ec0	-0.015815139
55	0xbcf12c08	-0.029439941
56	0x3d5c4585	0.053777236
57	0x3e2307c3	0.1592093
58	0xbdebbc35	-0.11510507
59	0x3dd4add2	0.10384716
60	0xbd7fe839	-0.062477324
61	0xbe603226	-0.2189413
62	0x3d5e42e9	0.05426303
63	0xbdc0d3f2	-0.09415425
64	0xbd8fb756	-0.070173904
65	0x3c6416dd	0.013921467
66	0x3e177ac2	0.14792922
67	0xbdd63da9	-0.104609795
68	0xbe04bc81	-0.12962534
69	0xbe99202d	-0.2990736
70	0x3dc83224	0.097751886
71	0x3bd456fb	0.0064800954
72	0xbd3fa83e	-0.046791308
73	0xbe781c01	-0.24229433
74	0xbb4e4c8e	-0.0031478736
75	0xbc6c0949	-0.014406511
76	0x3d55e8a7	0.052223828
77	0xbd823a4a	-0.06358774
78	0x3e2c76a4	0.16842133
79	0x3e854c87	0.26034948
80	0x3e12428a	0.14283195
81	0x3e33d829	0.17562927
82	0xbf0b222a	-0.54349005
83	0x3d8be353	0.06830468
84	0x3e0c1e34	0.13683397
85	0x3cd69b92	0.026197229
86	0x3cbab824	0.022792883
87	0xbc85d8ac	-0.016338669
88	0xbc0243bd	-0.00795072
89	0x3d0e283f	0.03470635
90	0xbd03fccd	-0.03222351
91	0xbe3b57cb	-0.18295209
92	0x3df43d25	0.11925725
93	0xbc7d9a3b	-0.015478666
94	0xbd84dc19	-0.06487293
95	0x395a071e	0.00020792751
96	0x3d5b24c3	0.053501856
97	0xbd342f8b	-0.043990653
98	0xbe05d0c8	-0.13067925
99	0xbda4a6c0	-0.080396175
100	0x3da8df75	0.08245746
101	0x3d93b6e0	0.07212615
102	0x3dbd0f0b	0.09231385
103	0x3e1dd01a	0.15411416
104	0xbd852e14	-0.06502929
105	0x3de10b74	0.10988513
106	0xbcc5ac73	-0.024130082
107	0x3d099eee	0.033598833
108	0x3de12c35	0.1099476
109	0x3e2ff208	0.17182171
110	0xbce5e31a	-0.028062392
111	0xbdf2ae6c	-0.118496746
112	0xbdec68a3	-0.11543395
113	0xbcd29ffb	-0.02571105
114	0xbdd100db	-0.10205241
115	0x3c1ed9d2	0.009695487
116	0x3d1a9503	0.037739765
117	0xbd8540f1	-0.06506527
118	0x3e2498f3	0.1607397
119	0x3dcbb033	0.09945717
120	0x3c51da00	0.012808323
121	0x3dcd17fc	0.1001434
122	0x3dfa3521	0.12217165
123	0x3d91d01e	0.07119773
124	0x3de0aaac	0.10970053
125	0x3d882434	0.0664753
126	0x3e395724	0.18099648
127	0x3e0e0749	0.13869967
128	0x3ef5857e	0.4795341
129	0x3e05a912	0.13052776
130	0xbd3b1200	-0.045671463
131	0x3de5c8e3	0.11219957
132	0x3e878764	0.26470482
133	0x3ebbd092	0.36682564
134	0x3dbddf4f	0.09271108
135	0x3e95c62b	0.29252753
136	0x3e85d53b	0.26139244
137	0x3e5b31eb	0.21405761
138	0xbda2af53	-0.07943597
139	0x3c896a6c	0.016774379
140	0x3db710ed	0.08938775
141	0x3d571c46	0.052517198
142	0x3e0902a1	0.13379909
143	0x3d7d8cbd	0.061901797
144	0xbc4761f8	-0.012169354
145	0x3eb64a72	0.35603672
146	0x3e3b7bf1	0.18308999
147	0x3e53ec4e	0.20695612
148	0xbcbf79e8	-0.02337356
149	0xbd1a26b2	-0.03763456
150	0x3c970ea1	0.018439593
151	0xbe05ae07	-0.13054667
152	0x3dcb9b3e	0.099417195
153	0x3db7a09b	0.0896618
154	0x3da8357a	0.08213325
155	0x3ec1369f	0.37736985
156	0x3e237a43	0.15964608
157	0xbaeec342	-0.001821615
158	0xbd50a1fe	-0.050935738
159	0x3dd4154c	0.103556246
160	0x3d8a308e	0.06747542
161	0x3dd9d24e	0.106358156
162	0x3e1a738a	0.15083137
163	0xbd29ba63	-0.041437518
164	0x3ea9a317	0.3313224
165	0x3e2c8ccd	0.16850586
166	0x3c7a0f96	0.015262505
167	0x3d2e6580	0.042577267
168	0xba22df3e	-0.0006213075
169	0x3e221b9f	0.15830849
170	0x3e1afaec	0.15134782
171	0x3e0392a5	0.12848909
172	0xbe13ee52	-0.1444638
173	0x3daa41d1	0.08313335
174	0x3ddd65f5	0.108104624
175	0x3e383356	0.17988333
176	0x3e0f5a34	0.13999254
177	0x3e80623a	0.2507494
178	0x3e0676fb	0.13131325
179	0xbcc50cbd	-0.024053926
180	0x3e408a78	0.18802822
181	0xbd7dce00	-0.061964035
182	0x3e99d6b7	0.30046627
183	0x3e4f5d7a	0.20250502
184	0xbd0aa431	-0.03384799
185	0xbe042617	-0.12905155
186	0x3e1e9b9e	0.15489051
187	0x3e32b90f	0.17453407
188	0x3e31e203	0.17371373
189	0x3e9cb9d0	0.30610514
190	0xbde62483	-0.11237433
191	0x3db2e5bd	0.08735225
192	0xbd0b53fe	-0.034015648
193	0xbcba793a	-0.022762883
194	0xbdc02bb7	-0.09383338
195	0x3e3090b3	0.17242698
196	0x3ce6125b	0.028084924
197	0x3dc93abe	0.09825657
198	0xbcc1480f	-0.02359393
199	0x3dd2d72c	0.10294947
200	0x3d9fc19e	0.078006014
201	0x3d0362c5	0.032076616
202	0xbd5dad96	-0.054120623
203	0x3e0a5810	0.13510156
204	0xbd9664ff	-0.07343482
205	0xbcaf9a10	-0.021435767
206	0xbc159985	-0.00913084
207	0xbe29aab9	-0.16569032
208	0xbe1721c8	-0.1475898
209	0x3d331b22	0.043727048
210	0xbe100f0a	-0.14068237
211	0x3d8abd9c	0.06774446
212	0xbd24199c	-0.040063486
213	0xbda627bf	-0.0811305
214	0xbce0a9f1	-0.027424784
215	0x3e33a6bd	0.17544074
216	0x3e3539e2	0.17697862
217	0x3ce45e9c	0.027877145
218	0xbd62d131	-0.05537528
219	0x3e5f29ff	0.21793364
220	0xbc913ebc	-0.01773011
221	0xbe0acef5	-0.1355551
222	0xbd3c4bd4	-0.045970753
223	0x3da7c9da	0.08192797
224	0xbe4cd419	-0.20002784
225	0x3de6e0bc	0.112733334
226	0x3c7d195f	0.0154479435
227	0x3d616473	0.055027436
228	0x3a951d3b	0.0011376509
229	0xbcc67243	-0.024224406
230	0xbd9a4b2d	-0.0753387
231	0xbe3a7763	-0.18209605
232	0x3e14ce41	0.14531805
233	0xbd0e29de	-0.034707896
234	0x3d860341	0.065435894
235	0x3db44809	0.08802802
236	0x3d5bee19	0.053693864
237	0xbe0d0b7c	-0.13773912
238	0x3d104d08	0.035229713
239	0xbe1088ad	-0.14114638
240	0x3dd7d1a0	0.1053803
241	0xbbaaf08c	-0.0052166637
242	0xbde56fb2	-0.11202945
243	0xbde5dd89	-0.11223895
244	0xbdd19aed	-0.10234628
245	0x3d7d0e14	0.061781004
246	0x3cc144c0	0.023592353
247	0x3d21a613	0.03946502
248	0xbbfb7c7f	-0.007674753
249	0xbe22b5bf	-0.15889643
250	0x3e154049	0.14575304
251	0xbc0ee1bb	-0.0087208105
252	0xbd92c6bd	-0.071668126
253	0xbc26ea71	-0.010187731
254	0x3e05596b	0.13022391
255	0xbcf0dd06	-0.029402267

fc3.bias f4 [49]
0	0xbe0f053b	-0.13966839
1	0x3d6fc0db	0.05853353
2	0x3dbf66cd	0.093457796
3	0x3e0efcc5	0.13963611
4	0x3dabef8b	0.083952986
5	0x3e08db13	0.1336482
6	0xbcf921ba	-0.03041159
7	0xbdafd142	-0.08584835
8	0x3d15790a	0.036492385
9	0x3e0c24d1	0.1368592
10	0xbe41eaca	-0.18937221
11	0xbde4001e	-0.11132835
12	0x3d9b82c3	0.075933
13	0x3ca12119	0.019669103
14	0x3e11262f	0.14174722
15	0xbe6e2f26	-0.23260173
16	0x3e0a5246	0.13507947
17	0xbdec83c0	-0.11548567
18	0x3ce8e81d	0.028430993
19	0x3d0ec91f	0.034859773
20	0xbdd43c71	-0.10363091
21	0xbc09ae13	-0.008403319
22	0x3d1b8238	0.037965983
23	0x3cac904f	0.021064905
24	0x3d141db1	0.03616113
25	0xbd8c616d	-0.0685452
26	0x3e0ce0a5	0.1375757
27	0x3d8e5adc	0.06950924
28	0x3e1f3038	0.15545738
29	0xbd2b6015	-0.041839678
30	0xbe2308e1	-0.15921356
31	0xbe0edc86	-0.1395131
32	0xbe5df96f	-0.21677183
33	0x3d5f0076	0.0544438
34	0x3e256d94	0.16155082
35	0x3d87961c	0.06620428
36	0x3e18b87d	0.14914127
37	0x3d4b0da5	0.04957356
38	0xbd8fccea	-0.07021506
39	0xbbadbfb2	-0.005302393
40	0x3d42da84	0.047571674
41	0xbd467fbc	-0.04846166
42	0xbc3cb26f	-0.011517151
43	0x3e211c53	0.15733461
44	0xbd93b2bf	-0.072118275
45	0x3c511d33	0.012763309
46	0xbe2098ed	-0.15683337
47	0x3dd44f61	0.10366703
48	0x3dc8ad4b	0.09798678

fc1.weight f4 [64, 49]
0	0xbdd387d1	-0.10328639
1	0x3d8bb2a3	0.068211816
2	0xbe0a71c7	-0.13519965
3	0x3e34ecca	0.17668453
4	0x3ce164ae	0.027513828
5	0xbd931ca5	-0.07183198
6	0xbdbef152	-0.09323372
7	0x3d77ba71	0.06048054
8	0x3c8bfa01	0.017086985
9	0xbe2b547b	-0.16731445
10	0x3cdd2265	0.02699394
11	0x3e1a0524	0.15041023
12	0x3dcf7e9e	0.10131572
13	0x3ca1cb87	0.01975037
14	0xbdced082	-0.100983635
15	0xbe4fa233	-0.20276718
16	0xbd081653	-0.033224415
17	0x3caff6df	0.021480022
18	0x3db1b851	0.08677734
19	0x3db9ccfd	0.090723015
20	0xbd378dca	-0.044812955
21	0xbe8a6dee	-0.27036995
22	0x3d985655	0.074383415
23	0xbd1ae53c	-0.03781627
24	0x3deaefa0	0.11471486
25	0x3e43bf0d	0.19115849
26	0xbde01bb2	-0.109427825
27	0xbe05c9f2	-0.13065317
28	0x3d78ccb6	0.060742103
29	0xbe454923	-0.1926618
30	0x3e0fccea	0.14043012
31	0xbe24b566	-0.16084823
32	0xbe0e124c	-0.13874167
33	0xbe57bb6d	-0.21067591
34	0xbe79d848	-0.24398911
35	0xbccbd56d	-0.024882043
36	0xbd8d5bbd	-0.06902263
37	0xbe5603ce	-0.20899889
38	0xbe29122d	-0.1651084
39	0xbe0cf4c3	-0.13765244
40	0x3bb72f2b	0.0055903397
41	0xbe75ad51	-0.23991896
42	0x3d4eaf72	0.050460286
43	0xbdc00341	-0.09375621
44	0x3d74bdcd	0.05975132
45	0x3c4306a5	0.01190344
46	0xbdfc24d3	-0.12311711
47	0xbe3129eb	-0.17301147
48	0x3bc95002	0.006143571
49	0xbd21a078	-0.039459676
50	0xbda94f21	-0.08267046
51	0x3e0ffc4d	0.14061089
52	0x3d35f3bc	0.044421896
53	0x3e7ea532	0.24867705
54	0x3bc069f2	0.0058720047
55	0xbd8514ca	-0.06498106
56	0x3e0b9000	0.1362915
57	0x3e2f4259	0.17115153
58	0x3e10fc69	0.14158787
59	0xbb2f0614	-0.0026706504
60	0xbc3ef92f	-0.01165609
61	0x3d28a5ee	0.041173868
62	0xbe934cca	-0.28769523
63	0xbd2e4230	-0.04254359
64	0xbcf4dd6b	-0.029890737
65	0xbe23b875	-0.15988334
66	0xbd5829b4	-0.052774146
67	0xbe0a3d85	-0.1350003
68	0x3dc56b00	0.09639549
69	0x3d4a5829	0.049400482
70	0xbe70b38e	-0.23505995
71	0x3e10234b	0.14075963
72	0xbe21e594	-0.15810233
73	0x3e3e7431	0.18599011
74	0x3d16e429	0.036838684
75	0xbca72b3e	-0.020406362
76	0x3dc02b39	0.09383244
77	0x3daf2017	0.085510425
78	0xbd17879e	-0.03699457
79	0x3c55d6ad	0.013051671
80	0xbd20a43a	-0.03921912
81	0xbda85912	-0.08220114
82	0xbd2d893b	-0.0423672
83	0x3de318a3	0.110886835
84	0xbdc57390	-0.096411824
85	0xbcbc574e	-0.022990849
86	0xbe2c0235	-0.16797717
87	0xbe2d87aa	-0.16946283
88	0xbbb1b944	-0.0054236967
89	0xbe151175	-0.1455744
90	0xbe738863	-0.23782496
91	0xbd41d853	-0.047325443
92	0xbcd8cf0a	-0.026465911
93	0xbe11f795	-0.14254601
94	0xbda2ef76	-0.0795583
95	0xbda5d9bf	-0.080981724
96	0xbca116dd	-0.019664222
97	0x3d994ba3	0.0748513
98	0x3e030013	0.12792997
99	0x3d195b96	0.03744086
100	0xbe12fb2d	-0.14353628
101	0x3d03b4b2	0.032154746
102	0x3de46118	0.11151332
103	0xbe18c18a	-0.1491758
104	0x3e6411ee	0.22272465
105	0xbe0827cc	-0.13296431
106	0xbe0b2c9e	-0.13591239
107	0xbe8565c8	-0.26054215
108	0xbe176f23	-0.14788489
109	0xbdf4d80a	-0.11955269
110	0xbe1cf2d4	-0.15327007
111	0x3a8717ae	0.001030674
112	0xbd0938c3	-0.033501398
113	0xbe0054e3	-0.12532382
114	0x3c0af5eb	0.008481483
115	0x3e344a46	0.17606458
116	0x3d43936c	0.047748014
117	0x3e34ce4c	0.17656821
118	0xbd33f6be	-0.043936484
119	0xbd805e47	-0.06267982
120	0x3e2253bb	0.15852253
121	0x3cb5c6e5	0.022189567
122	0x3e9fa9b7	0.3118417
123	0xbe9c6181	-0.3054314
124	0x3e068f7a	0.1314067
125	0xbbbd0591	-0.005768486
126	0xbd007533	-0.03136177
127	0xbce75bf8	-0.028242096
128	0xbd906910	-0.07051289
129	0xbe22d2a7	-0.1590067
130	0x3c1e82f6	0.009674778
131	0x3de1e441	0.11029864
132	0xbe0ad5a5	-0.13558061
133	0xbdc14cf5	-0.094385065
134	0x3d8cc5ab	0.0687364
135	0xbe3ab4f5	-0.18233092
136	0xbd0273c8	-0.0318487
137	0xbd75d72e	-0.060019664
138	0x3e555a49	0.20835222
139	0x3c1d343a	0.009594971
140	0xbd827f7d	-0.06371973
141	0xbd30d050	-0.043167412
142	0x3e3798bb	0.17929356
143	0x3eae73d3	0.34072742
144	0xbeaed8af	-0.3414969
145	0xbd048655	-0.03235467
146	0x3d4a05f2	0.049322076
147	0x3d746dbd	0.059674967
148	0x3e573b68	0.21018755
149	0xbe31f482	-0.17378429
150	0x3e0fe5be	0.14052483
151	0xbdfe9830	-0.12431371
152	0xbe9f8833	-0.311586
153	0x3e0e9204	0.13922888
154	0xbd0ce870	-0.034401357
155	0xbeba5f3d	-0.36400786
156	0xbe0d5688	-0.1380254
157	0x3da3ce1b	0.07998296
158	0x3e1145ae	0.14186737
159	0x3ea19c9d	0.315648
160	0x3e6efa3f	0.23337649
161	0x3c940a63	0.018071359
162	0xbe0600ec	-0.13086289
163	0x3b92c354	0.0044788513
164	0x3e34fb37	0.17673956
165	0x3e6e2963	0.23257975
166	0x3ecbe2bc	0.39821422
167	0xbe33ad1d	-0.17546506
168	0x3ca96bee	0.020681348
169	0x3de70fa6	0.112822816
170	0xbe16dd0f	-0.14732765
171	0x3e5d810a	0.21631256
172	0xbe951bab	-0.2912267
173	0x3d8cf809	0.068832465
174	0xbe80269c	-0.25029457
175	0xbcbb085e	-0.022831138
176	0x3e3241df	0.1740794
177	0x3e6d1a9a	0.23154679
178	0xbe0d98df	-0.13827847
179	0x3e123fc6	0.1428214
180	0x3dd7bb0e	0.10533725
181	0xbeaa32bf	-0.3324184
182	0xbdd19d78	-0.10235113
183	0xbcedcfb7	-0.02902971
184	0xbcae163c	-0.021250837
185	0x3d31ecce	0.043438725
186	0xbd900429	-0.070320435
187	0xbbdd598a	-0.0067550587
188	0x3d59f3bd	0.053210963
189	0x3d01dcd7	0.03170475
190	0x3c0c7ed0	0.008575156
191	0x3cebb4b0	0.028772682
192	0x3dc0c625	0.09412793
193	0xbdb8ae80	-0.09017658
194	0xbe84a2a4	-0.25905335
195	0x3ded2e78	0.11581129
196	0xbc23747c	-0.0099765025
197	0x3f211833	0.6292755
198	0xbd6db187	-0.05803063
199	0xbe6a3004	-0.22869879
200	0x3de413de	0.11136602
201	0xbe89a185	-0.26881042
202	0x3e833c2a	0.2563184
203	0x3cfb83d0	0.030702502
204	0x3db6d47c	0.08927247
205	0xbedf2322	-0.43581492
206	0xbd578971	-0.05262131
207	0x3d85b5ff	0.065288536
208	0x3ee95572	0.45573002
209	0x3e731149	0.23737063
210	0xbdd4290f	-0.10359394
211	0xbd89071c	-0.06690809
212	0xbe553b18	-0.20823324
213	0x3ebd4f5e	0.36974615
214	0xbdca16fa	-0.09867664
215	0xba93183c	-0.0011222432
216	0x3e018565	0.12648542
217	0xbe86186b	-0.26190504
218	0xbdc20c55	-0.094750084
219	0x3ea0734f	0.31337973
220	0xbdd39e93	-0.1033298
221	0xbe7e162f	-0.2481315
222	0x3d1cbe6a	0.03826753
223	0xbf22af6d	-0.6354893
224	0xbed803d4	-0.4219042
225	0xbdafcbf4	-0.08583823
226	0x3ed8e5e1	0.42362884
227	0x3e83559b	0.2565125
228	0x3e8113c8	0.25210404
229	0x3e3881ce	0.18018267
230	0xbe85f036	-0.2615983
231	0xbcf97a2d	-0.030453766
232	0xbed25dfe	-0.41087335
233	0x3dbd1676	0.092328
234	0x3e102500	0.14076614
235	0xbe5850a4	-0.21124512
236	0xbe14c6f2	-0.14529017
237	0xbe0aa7fb	-0.13540642
238	0xbd0788fc	-0.033089623
239	0xbd527b84	-0.051387325
240	0xbded72bd	-0.1159415
241	0x3ea90d47	0.33017942
242	0xbe62a9b0	-0.22135043
243	0xbeeddc4d	-0.4645714
244	0xbdd0d01e	-0.10195945
245	0xbd99248e	-0.074776754
246	0x3e591141	0.21197988
247	0x3e8ce2fb	0.27516922
248	0xbee21a0a	-0.4416049
249	0xbd8f79a5	-0.07005624
250	0xbe2417c4	-0.16024691
251	0xbd187e15	-0.037229616
252	0xbe979225	-0.29603687
253	0xbe80f8e3	-0.25189885
254	0xbe08324a	-0.13300434
255	0x3da01c7b	0.07817932

fc1.bias f4 [64]
0	0x3e6e838b	0.23292367
1	0x3b550918	0.003250664
2	0x3e2bb421	0.16767932
3	0x3ea2667c	0.31718814
4	0x3ecb7ec5	0.39745155
5	0x3e504fd8	0.20342958
6	0x3e87edc8	0.265486
7	0x3e2a3b4c	0.16624182
8	0x3e4dd4fd	0.2010078
9	0x3e288c09	0.16459669
10	0xbd9aabcf	-0.07552301
11	0x3e9940b6	0.29932183
12	0x3e1787e2	0.14797929
13	0x3da59fd4	0.080871254
14	0x3e4d6e00	0.20061493
15	0x3dcae408	0.09906775
16	0x3dc5dbbb	0.09661051
17	0x3e30105e	0.17193744
18	0x3e02862e	0.12746498
19	0x3daae993	0.08345332
20	0x3e86b896	0.26312703
21	0x3e562914	0.20914108
22	0x3e687add	0.22703119
23	0x3e96f22a	0.29481632
24	0xbe37ea37	-0.1796044
25	0x3e4e3b23	0.20139746
26	0x3e33f339	0.17573251
27	0xbe0fe757	-0.14053093
28	0x3e2f103f	0.17096041
29	0x3d96ef3e	0.073698506
30	0x3d972fe2	0.0738218
31	0x3e1f2f65	0.15545423
32	0x3c8ff4ae	0.017572727
33	0xbdb313dc	-0.08744022
34	0x3c4a3868	0.01234255
35	0x3dd938f1	0.10606564
36	0x3e4450dc	0.1917147
37	0x3dbb7996	0.0915405
38	0x3e89afbe	0.26891893
39	0x3d940daa	0.07229169
40	0x3e378d97	0.17925106
41	0x3e3ea30d	0.18616886
42	0x3df30c62	0.11867596
43	0x3dc1ff7f	0.0947256
44	0x3e0d7686	0.13814744
45	0xbc89b8f3	-0.016811823
46	0x3da8743d	0.08225296
47	0x3e578ae7	0.21049081
48	0x3eaee09b	0.34155735
49	0x3ebe8774	0.37212718
50	0x3de7206c	0.11285481
51	0x3e29b545	0.16573055
52	0x3e48f30f	0.1962397
53	0x3dfc25ec	0.123119205
54	0xbdbd1b5f	-0.09233736
55	0x3e3937a2	0.18087628
56	0x3dce0ba9	0.10060818
57	0xbdf54946	-0.119768664
58	0x3e6b720b	0.22992723
59	0x3e29a0ad	0.16565199
60	0xbdd7bf98	-0.105345905
61	0xbbf38c77	-0.007432516
62	0xbd29e42c	-0.041477367
63	0x3df46ecb	0.119351946

fc2.weight f4 [32, 64]
0	0x3e919445	0.28433433
1	0x3cc04988	0.023472562
2	0x3e3ee50e	0.18642065
3	0x3e86ee28	0.26353574
4	0x3e930b12	0.28719383
5	0x3e389b99	0.18028106
6	0x3e32eb26	0.17472515
7	0x3e567e45	0.20946606
8	0x3d993c51	0.074822076
9	0xbe07efd9	-0.13275088
10	0x3d2cb555	0.04216512
11	0x3e6db3a5	0.2321306
12	0x3c1d5a4d	0.009604049
13	0xbdf6b5a1	-0.12046362
14	0xbdcd84fb	-0.1003513
15	0xbc66ccce	-0.014086915
16	0xbe2b79c1	-0.16745664
17	0x3cdb5e2e	0.026778307
18	0x3dc36be8	0.09542066
19	0x3d17365b	0.03691707
20	0x3deded3e	0.11617516
21	0x3c94953d	0.018137569
22	0x3d5469f8	0.051858872
23	0x3e2766df	0.16347836
24	0xbde1755d	-0.110087134
25	0x3e48bf5a	0.19604245
26	0x3df4cd15	0.11953179
27	0xbd09d6c4	-0.033652082
28	0xbe4a1214	-0.19733459
29	0x3da20e91	0.079129346
30	0xbdd7751c	-0.10520384
31	0x3dc251b2	0.094882384
32	0xbbaa0931	-0.005189084
33	0xbcc57d25	-0.024107525
34	0xbc745d21	-0.014914782
35	0x3dc3b5d7	0.095561676
36	0x3e516d33	0.20451812
37	0x3d471cdb	0.048611503
38	0x3e4ce77a	0.20010176
39	0x3e89a37f	0.2688255
40	0x3e64d626	0.22347316
41	0x3ebb4653	0.3657709
42	0x3ddbfa82	0.1074114
43	0x3dfd7e48	0.12377602
44	0xbbe2f806	-0.0069265394
45	0xbe11c063	-0.14233546
46	0x3d089c8c	0.03335242
47	0x3e921ed5	0.28539148
48	0x3dc0f082	0.09420873
49	0x3e8d7562	0.27628618
50	0x3e03bcba	0.12864962
51	0xbd322e17	-0.043500986
52	0x3d92280a	0.07136543
53	0xbda32083	-0.079651855
54	0xbda5554b	-0.08072909
55	0x3e92fdbe	0.28709215
56	0x3ddc34c3	0.10752251
57	0x3dcd52f1	0.100255854
58	0x3d1ec9c5	0.03876664
59	0x3b82fcd8	0.0039974265
60	0x3c2fb03f	0.010723173
61	0xbe3558ab	-0.17709605
62	0x3e108a2d	0.1411521
63	0xbe0555d3	-0.1302102
64	0x3c57a42c	0.0131617
65	0x3e2a9d8c	0.16661662
66	0xbd88561f	-0.06657051
67	0xbe543176	-0.20721993
68	0x3efd7738	0.4950502
69	0x3ec2b7ed	0.3803095
70	0xbe87ae91	-0.2650037
71	0xbd8a761c	-0.06760809
72	0x3e01fd50	0.12694287
73	0x3d0a20b9	0.033722613
74	0x3e0a1da0	0.13487864
75	0x3ebae7e6	0.3650505
76	0xbdddd0bc	-0.108308285
77	0x3e033bfb	0.1281585
78	0x3b75c9c9	0.0037504307
79	0x3e314441	0.17311193
80	0x3d87ce15	0.06631104
81	0xbcea7314	-0.028619327
82	0x3e5e5130	0.21710658
83	0x3e3dbcfd	0.18529125
84	0x3e5d7894	0.21628028
85	0x3e1fa1b1	0.15589024
86	0x3d19778d	0.037467528
87	0x3ea6c65f	0.3257322
88	0xbd86ceff	-0.0658245
89	0x3c4eb31b	0.012615944
90	0x3e645758	0.22298944
91	0x3e9fea1e	0.31233305
92	0x3de952ba	0.11392732
93	0x3e952a19	0.2913368
94	0xbd978d73	-0.07400026
95	0x3eb25ec9	0.3483794
96	0x3bc535e9	0.0060183895
97	0x3decf2d5	0.11569754
98	0x3e94075c	0.28911865
99	0x3d240bf5	0.040050466
100	0xbddd3d1e	-0.10802673
101	0xbd84b292	-0.06479372
102	0x3cb688fc	0.022282116
103	0x3e0c6928	0.13711989
104	0xbdcf3a9f	-0.10118603
105	0xbdc17960	-0.094469786
106	0x3e53fd1b	0.20702021
107	0x3e772da0	0.24138498
108	0x3eb3c459	0.3511074
109	0x3e56e1c6	0.20984563
110	0x3e15ccbc	0.14628881
111	0xbe094958	-0.13406885
112	0x3ecedb20	0.40401554
113	0x3ef880a1	0.48535636
114	0xbb264c93	-0.0025375232
115	0xbbb65bca	-0.0055651413
116	0x3c310f90	0.010806933
117	0x3d5f10ef	0.05445951
118	0x3e002418	0.12513769
119	0x3dc0abfd	0.09407804
120	0x3d4c6005	0.04989626
121	0xbc78dc09	-0.015189179
122	0x3e8a6718	0.2703178
123	0x3d00ce9f	0.03144705
124	0x3de8fd95	0.11376492
125	0x3e4bff6c	0.19921654
126	0x3d91ce0d	0.07119379
127	0xbd938926	-0.07203893
128	0x3d188e41	0.03724504
129	0x3d976c7a	0.07393737
130	0x3eabfa85	0.3358957
131	0x3e52ad38	0.2057389
132	0x3e719de1	0.23595382
133	0x3d5a4bb1	0.05329484
134	0x3d62da65	0.05538406
135	0x3db2c715	0.08729378
136	0x3dd85b72	0.10564317
137	0xbde0adfe	-0.109706864
138	0xbb8c4ec0	-0.0042818487
139	0x3e85846b	0.2607759
140	0xbe32b01c	-0.17449993
141	0xbde66f6d	-0.112517215
142	0x3dc5f67c	0.09666154
143	0x3e84d60b	0.25944552
144	0x3d9a7fd3	0.07543912
145	0xbe585704	-0.21126944
146	0x3e5f852a	0.21828142
147	0xbd88b81c	-0.06675741
148	0xbe232790	-0.1593306
149	0x3da1f983	0.07908919
150	0xbe07deba	-0.13268557
151	0x3e4b89ad	0.19876738
152	0xbe1a27ed	-0.15054293
153	0xbd3c016e	-0.0458998
154	0x3e2dcd71	0.16972901
155	0xbd797b07	-0.060908344
156	0xbe59998a	-0.21249977
157	0x3e112a02	0.14176181
158	0xbda55674	-0.0807313
159	0x3dc14c9d	0.09438441
160	0xbde0c25c	-0.10974571
161	0xbd56d927	-0.052453186
162	0xbe64bb68	-0.22337115
163	0x3c9bf75c	0.019038849
164	0x3e786a29	0.24259247
165	0xbd706681	-0.058691505
166	0x3d2a228a	0.041536845
167	0x3ee32204	0.4436189
168	0xbe0d86cb	-0.1382095
169	0x3e786dc3	0.24260621
170	0x3cca6adc	0.024709158
171	0x3e028592	0.12746266
172	0xbd6ee579	-0.05832431
173	0x3e1f40b4	0.15552026
174	0xbdf445d4	-0.11927381
175	0x3e4a9572	0.19783571
176	0x3ed31b1c	0.4123162
177	0x3d857420	0.0651629
178	0xbd04c3ec	-0.03241341
179	0x3e80a71e	0.251275
180	0x3ecd523d	0.40101805
181	0xbdcb01a0	-0.09912419
182	0x3ca1de85	0.019759426
183	0x3f002e35	0.50070506
184	0xbe1bb5f1	-0.15206124
185	0x3a50c79c	0.00079643144
186	0xbd1f6f92	-0.03892476
187	0xbceafb50	-0.028684288
188	0xbdb963dd	-0.090522505
189	0x3da270d2	0.07931675
190	0xbe21a410	-0.15785241
191	0x3cb5dc42	0.022199754
192	0x3e2b1e28	0.16710722
193	0xbd15885e	-0.036507003
194	0x3e81e8e4	0.25372994
195	0x3ecd02e4	0.40041268
196	0x3e8c65a6	0.27421302
197	0xbd2df316	-0.042468153
198	0x3e5b4867	0.21414338
199	0x3e7eb57e	0.24873921
200	0x3e0abdcc	0.13548964
201	0xbd46241d	-0.048374284
202	0xbdf11931	-0.11772383
203	0x3eaa3b3e	0.33248323
204	0xbe43c98e	-0.19119856
205	0xbd9ffedb	-0.07812282
206	0xbdc3aaa4	-0.095540315
207	0x3dc8fe81	0.09814168
208	0xbc173a20	-0.009230167
209	0x3e30e8f7	0.17276369
210	0x3c806824	0.015674658
211	0xbd162b2e	-0.036662273
212	0x3e825aed	0.25459996
213	0xbc777739	-0.0151041085
214	0xbd0512ed	-0.032488752
215	0x3db0540a	0.08609779
216	0xbcee1d6c	-0.029066764
217	0x3dcfd87b	0.10148712
218	0x3be391c0	0.006944865
219	0xbd90e090	-0.07074082
220	0x3e2063bc	0.15663046
221	0x3c02ad31	0.007975862
222	0xbc0af648	-0.00848157
223	0x3e0f60d4	0.14001781
224	0xbc45f413	-0.012082118
225	0xbde802b6	-0.11328642
226	0x3d1ea47f	0.038731094
227	0xbde2a5a2	-0.11066748
228	0xbd737e0a	-0.059446372
229	0xbbd2f758	-0.006438177
230	0x3e5caab4	0.21549493
231	0x3e679144	0.22614008
232	0x3d8a0e29	0.06740982
233	0x3ef85ac9	0.48506764
234	0x3cc5ea24	0.024159499
235	0x3e5d7d67	0.21629868
236	0x3e2320e4	0.15930516
237	0xbd89f9e6	-0.067371175
238	0xbd0029ae	-0.03128975
239	0x3e66bdbc	0.22533315
240	0x3e06bf5d	0.13158937
241	0x3df4ec84	0.11959174
242	0xbd5ac61b	-0.053411584
243	0x3e1e8925	0.15482004
244	0x3e93c5c5	0.28861824
245	0xbd3987b6	-0.04529544
246	0x3d67bd47	0.056576993
247	0x3eeb6873	0.45978126
248	0x3e2759c5	0.16342838
249	0x3db6da34	0.08928338
250	0xbe4266fe	-0.18984601
251	0x3d95e4fc	0.07319066
252	0x3c8883ab	0.016664347
253	0x3c1d9882	0.00961888
254	0x3c849ab2	0.016187046
255	0x3d288a2a	0.04114739

fc2.bias f4 [32]
0	0x3e0a48f5	0.13504393
1	0x3e0bb79a	0.13644257
2	0x3de00812	0.10939039
3	0x3e3f170e	0.18661138
4	0x3d7ed9d3	0.062219452
5	0x3d26d60e	0.040731482
6	0x3caca1a7	0.021073176
7	0xbd956120	-0.07293916
8	0x3e480d14	0.19536239
9	0xbc0ee45c	-0.008721437
10	0x3e0062d8	0.12537706
11	0x3e10d962	0.14145425
12	0x3dfa8070	0.12231529
13	0xbd13e043	-0.036102545
14	0x3def9b3d	0.11699531
15	0xbb91160f	-0.0044276784
16	0x3e5636e1	0.20919372
17	0x3d6ae7f4	0.057350114
18	0x3e4b19c4	0.19834048
19	0x3e03070d	0.12795658
20	0x3dae5748	0.08512741
21	0x3db797f2	0.08964528
22	0xbdeba7b0	-0.11506593
23	0x3d9868a4	0.074418336
24	0xbe08f997	-0.13376461
25	0xbdb44451	-0.08802093
26	0x3d886427	0.066597275
27	0x3c1e9bd2	0.009680705
28	0xbd000852	-0.031257935
29	0x3d07560b	0.03304104
30	0x3dc10d1a	0.09426327
31	0x3e84020d	0.25782815

fc3.weight f4 [49, 32]
0	0xbd4b4324	-0.049624577
1	0x3e6b8df2	0.23003367
2	0xbe8ac341	-0.27102092
3	0x3e18ace1	0.14909698
4	0xbe14ef3c	-0.14544386
5	0x3e6b5c11	0.2298434
6	0x3d9ae3f9	0.075630136
7	0xbe3bec56	-0.18351874
8	0x3e8e2b03	0.2776719
9	0xbcefec18	-0.029287383
10	0x3e2a2d28	0.16618788
11	0x3e8cde77	0.27513477
12	0x3dfadff7	0.12249749
13	0x3e7c3591	0.24629809
14	0xbc495507	-0.0122883385
15	0xbc7b46b0	-0.015336677
16	0x3d13398e	0.03594356
17	0xbca27ac4	-0.01983393
18	0x3df290a9	0.11843998
19	0x3da5a2aa	0.08087666
20	0x3daebfc0	0.08532667
21	0x3d2c6ce1	0.042096023
22	0x3df545bb	0.11976191
23	0x3eaa6bd7	0.332854
24	0xbd75aaec	-0.059977457
25	0x3bf5b727	0.00749864
26	0x3dd46f82	0.10372831
27	0x3e059758	0.13046014
28	0x3b68cbbb	0.0035521823
29	0x3e546323	0.20740943
30	0x3d3791a5	0.04481663
31	0xbe21a03b	-0.1578378
32	0x3d9cdab9	0.076589055
33	0xbd5f92fa	-0.054583527
34	0xbe1ad68b	-0.15120904
35	0x3c07ce00	0.00828886
36	0xbd4452a1	-0.047930364
37	0xbbec089e	-0.0072031757
38	0x3e3388a3	0.17532592
39	0x3dd46e48	0.10372597
40	0xbcebcfdc	-0.028785639
41	0xbdeba545	-0.11506132
42	0xbe2e169e	-0.17000815
43	0xbe25b116	-0.16180834
44	0xbbd0f9a0	-0.006377414
45	0xbe20d27c	-0.15705293
46	0x3db14b5c	0.08656952
47	0x3df7fa74	0.12108317
48	0x3d43c697	0.047796812
49	0xbe3e043a	-0.185563
50	0xbe31bfed	-0.1735837
51	0xbd1bb8b1	-0.038017932
52	0x3d9e30ca	0.077241495
53	0xbe03f186	-0.12885103
54	0xbd89b091	-0.067231305
55	0xbddbaf01	-0.10726739
56	0xbde2356f	-0.11045348
57	0xbe4ef927	-0.20212232
58	0xbe5af342	-0.21381858
59	0x3cfd98b1	0.030956598
60	0x3db968db	0.09053203
61	0xbe349e89	-0.17638601
62	0xbdda4e51	-0.10659469
63	0xbe330d20	-0.17485476
64	0xbdeecd5d	-0.11660264
65	0xbc1beae4	-0.0095164515
66	0xbbe07435	-0.0068497905
67	0xbe043df3	-0.12914257
68	0xbde0cf55	-0.109770454
69	0xbe3ab117	-0.18231617
70	0x3e5851c1	0.21124937
71	0xbd584cfe	-0.0528078
72	0x3c95aa5c	0.01826971
73	0xbe0db990	-0.13840318
74	0xbe42baa8	-0.19016516
75	0xbc729d1b	-0.014807965
76	0xbe0c5d5d	-0.1370749
77	0xbd9eba56	-0.077503845
78	0xbc869943	-0.016430503
79	0xbe8bca1e	-0.2730264
80	0x3cb965f5	0.022631625
81	0xbd2d9e9f	-0.0423876
82	0xbe350565	-0.17677839
83	0x3cfda26f	0.030961243
84	0xbe252327	-0.16126691
85	0xbeb3192a	-0.34980136
86	0xbd0b6f94	-0.034041956
87	0xbd6d1128	-0.05787769
88	0x3e248f40	0.1607027
89	0xbd3b990d	-0.045800257
90	0x3e52797a	0.20554152
91	0xbdd376ca	-0.103253916
92	0x3d4e4e79	0.050367806
93	0xbe02cd0b	-0.1277353
94	0xbe0725f0	-0.13198066
95	0xbd7906bb	-0.060797434
96	0x3e556707	0.20840083
97	0x3ecd8e82	0.40147787
98	0x3d7a7285	0.06114437
99	0xbcb72430	-0.022356123
100	0x3dd7a272	0.10529031
101	0x3ebf34c6	0.3734495
102	0x3e3044cb	0.17213742
103	0x3edd16b1	0.43181375
104	0x3de9c204	0.11413959
105	0xbd87fa75	-0.06639568
106	0x3e24c45c	0.1609053
107	0xbe02977a	-0.12753096
108	0x3e946fbf	0.28991506
109	0x3e4b81d1	0.1987374
110	0x3e9d9195	0.30775133
111	0x3ec97cda	0.39353067
112	0x3ec7707a	0.38953
113	0x3eb5a322	0.35476023
114	0x3ec26b5d	0.37972537
115	0x3e370168	0.1787163
116	0xba871367	-0.0010305465
117	0x3e55dcd7	0.20885025
118	0xbd3c3495	-0.045948584
119	0x3dfbb03d	0.12289474
120	0xbda492a1	-0.0803578
121	0x3da2f06b	0.07956012
122	0x3e73de2b	0.23815219
123	0xbc58c071	-0.013229475
124	0x3e0b350d	0.13594456
125	0x3e23d42e	0.15998909
126	0x3e60a22f	0.21936868
127	0x3d3144b1	0.0432784
128	0x3db9ab06	0.09065823
129	0xbe811004	-0.2520753
130	0x3e785a92	0.242533
131	0xbde378c0	-0.111070156
132	0xbd09ac6e	-0.033611707
133	0x3d8c67ff	0.06855773
134	0x3d9306b2	0.071790114
135	0x3ecb837a	0.39748746
136	0xbb3af94e	-0.0028529945
137	0x3e0d1850	0.13778806
138	0x3d5722d5	0.052523453
139	0x3e114cd9	0.14189471
140	0x3d91fb9c	0.07128069
141	0xbe97e76e	-0.29668754
142	0x3e038c04	0.1284638
143	0x3dfbd77f	0.12296962
144	0x3dbfea58	0.093708694
145	0x3bba6c46	0.0056891767
146	0x3de244d8	0.11048287
147	0x3e40c482	0.18824962
148	0x3ecaad14	0.39585173
149	0x3e389901	0.18027116
150	0x3dfa53ec	0.12223038
151	0xbe4b26b3	-0.19838981
152	0x3ccb8a70	0.024846286
153	0x3e311d8e	0.1729643
154	0xbcc4a93e	-0.024006482
155	0x3da47b6d	0.08031354
156	0x3d9ea3d4	0.077460915
157	0xbe090f92	-0.13384846
158	0x3b966774	0.0045899693
159	0xbd12bd0a	-0.035824813
160	0xbcbbbd3c	-0.022917382
161	0x3dc93b60	0.09825778
162	0xbe353781	-0.17696954
163	0xbdbf51b6	-0.09341757
164	0xbd463f97	-0.048400488
165	0x3d42cb5b	0.047557216
166	0xbddd8838	-0.10816997
167	0x3e016fc9	0.12640299
168	0x3dc8a063	0.09796216
169	0x3e3409d8	0.1758188
170	0x3cf3228b	0.029679557
171	0xbda7ec58	-0.08199376
172	0x3e184593	0.1487029
173	0x3cfee593	0.031115329
174	0x3d9de966	0.07710533
175	0xbe213140	-0.15741444
176	0xbaa801b9	-0.0012817896
177	0x3c05a812	0.008157747
178	0xbd31a262	-0.04336775
179	0xbd2b34a7	-0.04179826
180	0x3e4fe077	0.2030047
181	0x3da76a05	0.081745185
182	0x3d9b4940	0.07582331
183	0xbdf22687	-0.11823755
184	0x3e148ce4	0.1450687
185	0xbc869a21	-0.016430916
186	0xbe626b58	-0.22111261
187	0xbe023f6e	-0.12719509
188	0x3e04d2f0	0.12971091
189	0x3e0581ab	0.13037746
190	0x3daf50ed	0.08560357
191	0x3cd38bf0	0.025823563
192	0xbdd53106	-0.10409741
193	0x3db56c1d	0.088585116
194	0xbbe30a12	-0.0069286907
195	0x3d82b131	0.06381453
196	0x3e45d73e	0.1932039
197	0xbdc1c6e1	-0.09461761
198	0x3db9e612	0.090770856
199	0x3e0edc0e	0.13951132
200	0x3da29940	0.07939386
201	0xbddd4c9d	-0.108056284
202	0xbc92a642	-0.017901544
203	0xbd4fd880	-0.05074358
204	0x3e3d0d81	0.18462183
205	0xbdedbc6e	-0.11608206
206	0xbe0b07a7	-0.13577138
207	0x3cc1e7bc	0.02367007
208	0x3d4b7ca8	0.04967943
209	0xbdf027bc	-0.11726329
210	0xbe077b01	-0.13230516
211	0x3d1f1342	0.038836725
212	0xbd375d49	-0.044766698
213	0xbda16d02	-0.0788212
214	0x3d2c2896	0.042030893
215	0xbe31953b	-0.17342083
216	0xbe0a7a0f	-0.13523124
217	0xbe91aff8	-0.28454566
218	0x3bcdd339	0.006281283
219	0x3c7d2c32	0.0154524315
220	0x3d9a0522	0.0752051
221	0xbe270df2	-0.16313913
222	0xbe4aad06	-0.19792566
223	0xbdff0867	-0.124527745
224	0x3e901e7d	0.2814826
225	0x3e9c707a	0.30554563
226	0x3dd88b75	0.10573474
227	0x3ea82ec9	0.32848194
228	0x3d20e604	0.03928186
229	0x3d95f0af	0.073212974
230	0xbdb4e16d	-0.08832059
231	0x3dae3d54	0.08507791
232	0x3e692aa4	0.22770172
233	0xbe5c6380	-0.21522331
234	0x3cc38687	0.023867859
235	0xbd41e037	-0.04733297
236	0x3d33eccc	0.043927
237	0xbe2cf109	-0.16888823
238	0x3c6631bd	0.0140499445
239	0x3eb8360a	0.3597873
240	0x3d1598fe	0.036522858
241	0xbd1a9e88	-0.037748843
242	0x3e6fe2c0	0.23426342
243	0x3e3b359c	0.18282169
244	0x3cd70ded	0.026251758
245	0xbe7183df	-0.23585461
246	0x3da696fb	0.08134266
247	0x3ec60de4	0.38682473
248	0xbd97ad75	-0.07406131
249	0x3c581e2c	0.013190787
250	0x3e402692	0.18764713
251	0x3d4991d1	0.049211327
252	0x3e7560a7	0.23962651
253	0xbdd9757e	-0.10618113
254	0xbea06426	-0.31326407
255	0x3e0b5486	0.13606462

fc3.bias f4 [49]
0	0x3e7e8828	0.24856627
1	0xbe270325	-0.16309793
2	0xbe6e0122	-0.2324262
3	0x3e498e0b	0.19683091
4	0xbd99e58d	-0.075144865
5	0x3e29b8a4	0.16574341
6	0xbdb8ec69	-0.09029467
7	0x3e1cb650	0.15303922
8	0xbd526ba2	-0.051372178
9	0xbe0a2b7b	-0.13493149
10	0x3df25269	0.11832125
11	0x3d066a12	0.032816
12	0x3d4baf6d	0.049727846
13	0x3de5190f	0.1118642
14	0x3da3e4fc	0.0800266
15	0x3b154622	0.0022777398
16	0xbde1ee03	-0.11031725
17	0x3cdf7017	0.027275128
18	0x3bfed9d6	0.007777433
19	0xbdc621d9	-0.09674425
20	0x3deb03ed	0.11475358
21	0x3cb855df	0.022501884
22	0x3ba09dce	0.0049016243
23	0x3dc2e860	0.09516978
24	0xbe04b3dd	-0.12959237
25	0xbe273be2	-0.16331437
26	0xbe1aa854	-0.15103275
27	0xbdca86f4	-0.098890215
28	0x3e6931d9	0.22772922
29	0xbdcd3648	-0.10020119
30	0xbc694fa3	-0.014240178
31	0x3e95e6fe	0.29277796
32	0x3b988007	0.004653934
33	0xbe312ea6	-0.17302951
34	0xbdfd7ec7	-0.123776965
35	0xbc2ae1e6	-0.010429835
36	0x3ab68a39	0.0013926692
37	0x3e29a76f	0.16567777
38	0x3e8ed4bb	0.27896675
39	0x3d86fcca	0.065911844
40	0xbe4c536d	-0.199537
41	0x3e46aab3	0.19401054
42	0xbce28d00	-0.027655125
43	0xbcc088c4	-0.023502715
44	0x3e1d8cf4	0.153858
45	0xbd999bb8	-0.07500404
46	0xbe406b21	-0.18790866
47	0x3ddaa01a	0.10675068
48	0xbdcb9295	-0.09940068
